…
y, they are read-only. Only use them for analysis.\n\n\nAt the post-synaptic level\nTo minimize memory access, the local parameters and variables of a projection can be accessed through the Dendrite object, which gathers for a single post-synaptic neuron all synapses belonging to the projection.\nEach dendrite stores the parameters and variables of the corresponding synapses as attributes, as populations do for neurons. You can loop over all post-synaptic neurons receiving synapses with the dendrites iterator:\n\nfor dendrite in proj.dendrites:\n    print(dendrite.pre_ranks, dendrite.size)\n\n[0, 1, 2, 3, 4, 7, 8, 9] 8\n[2, 3, 5, 6, 7, 8] 6\n[0, 1, 2, 4, 6] 5\n[1, 4, 5, 6, 7, 9] 6\n[2, 5, 8, 9] 4\n[3, 6, 8, 9] 4\n[1, 5, 6, 8] 4\n[0, 1, 3, 4, 6] 5\n[1, 3, 4, 7, 9] 5\n[0, 4, 5, 7] 4\n\n\ndendrite.pre_ranks returns a list of pre-synaptic neuron ranks. dendrite.size returns the number of synapses for the considered post-synaptic neuron. Global parameters/variables return a single value (dendrite.tau) and local ones return a list (dendrite.w).\nYou can also access the dendrites individually, either by specifying the rank or the coordinates of the post-synaptic neuron:\n\ndendri
…
   validation_split=0.1,   # Percentage of training data used for validation\n)\n\nmodel.save(\"runs/cnn.keras\")\n\n# Test model\npredictions_keras = model.predict(X_test, verbose=0)\ntest_loss, test_accuracy = model.evaluate(X_test, T_test, verbose=0)\nprint(f\"Test accuracy: {test_accuracy}\")\n\nModel: \"functional\"\n\n\n\n┏━━━━━━━━━━━━━━━━━━━━━━━━━━━━━━━━━┳━━━━━━━━━━━━━━━━━━━━━━━━┳━━━━━━━━━━━━━━━┓\n┃ Layer (type)                    ┃ Output Shape           ┃       Param # ┃\n┡━━━━━━━━━━━━━━━━━━━━━━━━━━━━━━━━━╇━━━━━━━━━━━━━━━━━━━━━━━━╇━━━━━━━━━━━━━━━┩\n│ input_layer (InputLayer)        │ (None, 28, 28, 1)      │             0 │\n├─────────────────────────────────┼────────────────────────┼───────────────┤\n│ conv2d (Conv2D)                 │ (None, 28, 28, 16)     │           400 │\n├─────────────────────────────────┼────────────────────────┼───────────────┤\n│ max_pooling2d (MaxPooling2D)    │ (None, 14, 14, 16)     │             0 │\n├─────────────────────────────────┼────────────────────────┼───────────────┤\n│ conv2d_1 (Conv2D)               │ (None, 14, 14, 64)     │        25,600 │\n├─────────────────────────────────┼────────────────────────┼───────────────┤\n│ max_pooling2d_1 (MaxPooling2D)  │ (None, 7, 7, 64)       │             0 │\n├─────────────────────────────────┼────────────────────────┼───────────────┤\n│ conv2d_2 (Conv2D)               │ (None, 7, 7, 64)       │       102,400 │\n├─────────────────────────────────┼────────────────────────┼───────────────┤\n│ max_pooling2d_2 (MaxPooling2D)  │ (None, 3, 3, 64)       │             0 │\n├─────────────────────────────────┼────────────────────────┼───────────────┤\n│ dropout (Dropout)               │ (None, 3, 3, 64)       │             0 │\n├─────────────────────────────────┼────────────────────────┼───────────────┤\n│ flatten (Flatten)               │ (None, 576)            │             0 │\n├─────────────────────────────────┼────────────────────────┼───────────────┤\n│ dense (Dense)                   │ (None, 10)             │         5,760 │\n└─────────────────────────────────┴────────────────────────┴───────────────┘\n\n\n\n Total params: 134,160 (524.06 KB)\n\n\n\n Trainable params: 134,160 (524.06 KB)\n\n\n\n Non-trainable params: 0 (0.00 B)\n\n\n\n\nNone\n\nEpoch 1/20\n\n422/422 ━━━━━━━━━━━━━━━━━━━━ 16s 37ms/step - accuracy: 0.3226 - loss: 2.0190 - val_accuracy: 0.9087 - val_loss: 0.3620\n\nEpoch 2/20\n\n422/422 ━━━━━━━━━━━━━━━
…
s=\"r = sum(exc)\"))\n\nproj = net.connect(Convolution(inp, pop, 'exc'))\nproj.connect_filter(\n    [\n        [-1., 0., 1.],\n        [-1., 0., 1.],\n        [-1., 0., 1.]\n    ])\n\nnet.compile()\nThe maximum number of dimensions for populations and filters is 4, an error is thrown otherwise.\nDepending on the number of dimensions of the pre- and post-synaptic populations, as well as of the kernel, the convolution is implemented differentely.\nMethod connect_filter()\n\nIf the pre- and post-populations have the same dimension as the kernel, the convolution is regular. Example:\n(100, 100) * (3, 3) -&gt; (100, 100)\nIf the post-population has one dimension less than the pre-synaptic one, the last dimension of the kernel must match the last one of the pre-synaptic population. Example:\n(100, 100, 3) * (3, 3, 3) -&gt; (100, 100)\nIf the kernel has less dimensions than the two populations, the number of neurons in the last dimension of the populations must be the same. The convolution will be calculated for each feature map in the last dimension. In this case, you must set keep_last_dimension to True. Example:\n(100, 100, 16) * (3, 3) -&gt; (100, 100, 16)\n\nMethod connect_filters()\n\nIf the kernel has more dimensions than the pre-synaptic population, this means a bank of different filters will be applied on the pre-synaptic population (like a convolutional layer in a CNN). Attention: the first index of weights corresponds to the different filters, while the result will be accessible in the last dimension of the post-synaptic population. You must set the multiple argument to True. Example:\n(100, 100) * (16, 3, 3) -&gt; (100, 100, 16)\n\nThe convolution always uses padding for elements that would be outside the array (no equivalent of valid in tensorflow). It is 0.0 by default, but can be changed using the padding argument. Setting padding to the string border will repeat the value of the border elements.\nSub-sampling will be automatically performed according to the populations’ geometry. If these geometries do not match, an error will be thrown. Example:\n(100, 100) * (3, 3) -&gt; (50, 50)\nYou can redefine the sub-sampling by providing a list subsampling as argument, defining for each post-synaptic neuron the coordinates of the pre-synaptic neuron which will be the center of the filter/kernel.\n\n\n\n\n\n\n\n\n\n\n\nName\nType\nDescription\nDefault\n\n\n\n\npre\n\npre-synaptic population (either its name or a Population object).\nrequired\n\n\npost\n\npost-synaptic po
…
   validation_split=0.1,   # Percentage of training data used for validation\n)\n\nmodel.save(\"runs/mlp.keras\")\n\n# Test model\npredictions_keras = model.predict(X_test, verbose=0)\ntest_loss, test_accuracy = model.evaluate(X_test, T_test, verbose=0)\nprint(f\"Test accuracy: {test_accuracy}\")\n\nModel: \"functional\"\n\n\n\n┏━━━━━━━━━━━━━━━━━━━━━━━━━━━━━━━━━┳━━━━━━━━━━━━━━━━━━━━━━━━┳━━━━━━━━━━━━━━━┓\n┃ Layer (type)                    ┃ Output Shape           ┃       Param # ┃\n┡━━━━━━━━━━━━━━━━━━━━━━━━━━━━━━━━━╇━━━━━━━━━━━━━━━━━━━━━━━━╇━━━━━━━━━━━━━━━┩\n│ input_layer (InputLayer)        │ (None, 784)            │             0 │\n├─────────────────────────────────┼────────────────────────┼───────────────┤\n│ dense (Dense)                   │ (None, 128)            │       100,352 │\n├─────────────────────────────────┼────────────────────────┼───────────────┤\n│ dropout (Dropout)               │ (None, 128)            │             0 │\n├─────────────────────────────────┼────────────────────────┼───────────────┤\n│ dense_1 (Dense)                 │ (None, 128)            │        16,384 │\n├─────────────────────────────────┼────────────────────────┼───────────────┤\n│ dropout_1 (Dropout)             │ (None, 128)            │             0 │\n├─────────────────────────────────┼────────────────────────┼───────────────┤\n│ dense_2 (Dense)                 │ (None, 10)             │         1,280 │\n└─────────────────────────────────┴────────────────────────┴───────────────┘\n\n\n\n Total params: 118,016 (461.00 KB)\n\n\n\n Trainable params: 118,016 (461.00 KB)\n\n\n\n Non-trainable params: 0 (0.00 B)\n\n\n\n\nNone\n\nEpoch 1/20\n\n422/422 ━━━━━━━━━━━━━━━━━━━━ 1s 2ms/step - accuracy: 0.4837 - loss: 1.5160 - val_accuracy: 0.9123 - val_loss: 0.3443\n\nEpoch 2/20\n\n422/422 ━━━━━━━━━━━━━━━━━
…
